project5/mnist_model.pth (torch, 90416 bytes, 8 tensors)

conv1.weight f4 [10, 1, 5, 5]
00000000: f5fb 353e 96d7 853e 3474 e33d 0753 b33e
00000010: 2ce5 36bd 8644 8abb cda9 023e 707b 0a3f
00000020: f202 d23e 4a19 38be de75 4f3e 96b9 a93e
00000030: b965 0e3f fba1 573e 3dd9 063e c3a2 b9bb
00000040: ee9e 913e 20d8 5f3e 302a 5d3d 5cfd 103e
00000050: 269c 36be b6dc 2fbd 31c7 e03c 0d4f 983e
00000060: 9e4f 31bd da0a 0fbe e8f4 15be 2331 30be
00000070: 508b 233c dd97 53be 9d95 4d3e b6e2 37be
00000080: e5a1 2b3e a811 233d 42b3 f7bd ee95 5f3e
00000090: f8f2 373e 8965 cb3e 6a86 513e 432d 4cbd
000000a0: 79e9 083e 5069 263e aac8 dc3e 7b44 de3e
000000b0: 99b2 4e3e 07f7 1abe 2364 483e f1ee 363e
000000c0: 77a0 703e 2abb 61bc 2897 41be 640d 823d
000000d0: 90fc 693d 5b1f 843e d43c b03c 8ec9 a73d
000000e0: 777e 863e 96d6 7c3e 01ad 333e b161 8fbe
000000f0: be22 193e 920d 663e e0c9 963e 85a8 20be
00000100: 5546 32be 3c14 193e 9fee f13e 8114 c2bc
00000110: 0c20 93be 4e06 a9be ddcb a73e d7b4 933e
00000120: 57fc 3d3e b02a b8be c3a2 d4be 1a9e 6abe
00000130: 3dcf 44be e0f0 9b3d 2977 313e a0ad 973e
00000140: e14b 49be 94d8 1fbe f5e8 3c3e 23a6 ac3d
00000150: d258 783e a8cf 0abe ecb9 0f3e d1a1 613c
00000160: 02b6 b03d 63f1 d93d ce79 18bb cd1c ffbb
00000170: 20b3 7c3e cdb0 5a3e f811 2cbe bd54 19bd
00000180: b649 893e 7a1f 9a3c 6849 57bd 6edb 61be
00000190: 52f5 29be 0ca2 d73a a580 7bbd f9ee 31be
000001a0: 2415 bebc 87c4 3bbe 010a 68be b484 1dbe
000001b0: e88c 5cbe cec8 2abe c1d2 003e 5aa5 07bd
000001c0: a264 a93b a9ee 6dbe cd47 33be 6d0c cdbd
000001d0: f7f1 f5bb 4737 5dbe 5f9e 03be 3ccf 2cbe
000001e0: c5aa 433b ffe9 afbd 6296 0cbd d967 2ebe
000001f0: c6db 3cbe 9c48 f4bd 1642 b2bd 7c55 3fbe
00000200: 9905 153e 6a4f dabb ef61 1a3e f1f0 393b
00000210: 34df 86be b7ad 793d 2eb7 8dbd ad76 8dbd
00000220: 828a 4cbe f149 8dbe 896e 1abd 888a 8ebd
00000230: 900c 483e 0417 83bd 572b 383e 748e 19be
00000240: 06dd 68bc bb90 443e e96c 9d3e 2a55 ac3e
00000250: ac0c 973e 8bf4 d0bd ca28 c73b 671a 1dbe
00000260: 3c61 d3bd aad8 24be 1516 653e ac7b 2abe
00000270: e732 203e 02a5 0b3e ed79 2d3e 6454 71bd
00000280: 2d72 973e cb4d 6b3e 438f 2a3e b17a 0ebe
00000290: e11a b23d 7c4f 10bc 2460 32bd 0854 793e
000002a0: f4ec 433d 0cec 11be 9081 58be 915f 56bd
000002b0: f186 1d3e 3a8f 12bd 00e0 efbd e483 f7bd
000002c0: 7718 f3bd 9afa 353e f4e2 7a3e 15c7 62be
000002d0: 1fbd 913d 5eac 6a3e 4b71 263e 7f80 bebd
000002e0: b6d7 00bd 7c76 303e 6740 5c3e d376 f93d
000002f0: 1e92 09bd ab2f 46bd 5f03 bcbc 205b a33c
00000300: 50a2 b43e 49e7 ca3e 7891 cd3d bf03 03be
00000310: 1a3e 36bd 8278 783d d526 673e 004e 863e
00000320: 109e 60be 33aa 0cbe 491d cf3d 60d6 293d
00000330: 1665 3fbd 3ba2 0ebe 4cf0 81be 41cf 95be
00000340: 755c 0cbe 80e4 e1ba ba47 6a3e b481 723d
00000350: 17f1 7ebe e224 4bbe c9df fabd 7622 b13e
00000360: 410b 263e 7cb8 c9bc 70d1 353d 328d 03be
00000370: 4aed c8bc a0bf 973e 29b2 b53c 661b de3c
00000380: df01 3cbe e6b6 503e 7474 ae3e 2806 b93e
00000390: ef0f 5c3e 79e1 f53d 0696 993d 1207 ea3e
000003a0: 0987 c33e 7b82 e33e cf3a a33e fdb5 0d3e
000003b0: 2bb5 11bd ff14 6bbe eb19 69be 994a 5ebe
000003c0: da2b 6dbd cf7c c1be f0bd a9be a037 96be
000003d0: 9f38 33be 6905 b3be da47 bebe eae5 fbbd
000003e0: 7b98 01be aed2 da3c
0.17771895 0.26141042 0.11106148 0.35024282 -0.04465215 -0.0042195944 0.12760086 0.540946
0.41017872 -0.17978397 0.20259807 0.33149403 0.55623966 0.21057884 0.13168807 -0.0056651547
0.28441566 0.21859789 0.05399531 0.14159149 -0.17833003 -0.042935096 0.027438732 0.2974781
-0.04328882 -0.13968983 -0.14644206 -0.17206244 0.009981945 -0.206634 0.20076604 -0.17957577
0.16760977 0.03981176 -0.120947376 0.21834537 0.17963779 0.39725903 0.20461431 -0.049847852
0.13370313 0.16251111 0.43121845 0.4341162 0.20185317 -0.15133296 0.19569449 0.17864586
0.23498712 -0.013777534 -0.18905318 0.0635021 0.057125628 0.25805172 0.02151338 0.081927404
0.2626836 0.24691233 0.17546465 -0.2800422 0.1495466 0.22466114 0.29450893 -0.15689285
-0.17409642 0.14949125 0.47252366 -0.023691418 -0.28735387 -0.33012623 0.32772723 0.28848907
0.18553291 -0.35970068 -0.41530427 -0.22911873 -0.1921968 0.07614303 0.17330612 0.29624653
-0.19657852 -0.15609962 0.18448241 0.084301256 0.24252632 -0.13555777 0.14035767 0.01377149
0.08628465 0.10641744 -0.002326596 -0.0077854157 0.24677706 0.21356507 -0.1680373 -0.03743433
0.2681405 0.018813837 -0.05256024 -0.22056362 -0.16597489 0.0016451492 -0.06140198 -0.17376317
-0.02320344 -0.18336688 -0.22660066 -0.15382653 -0.21538126 -0.16678163 0.12580396 -0.033116676
0.005169467 -0.23235573 -0.17507859 -0.10012136 -0.007505651 -0.21603118 -0.12853383 -0.16875929
0.0029856425 -0.08589553 -0.034323104 -0.17031802 -0.18443212 -0.11927912 -0.08704011 -0.18684953
0.14552917 -0.006662299 0.15076421 0.0028372372 -0.26342165 0.060956683 -0.069197044 -0.06907401
-0.19974712 -0.27595475 -0.03770307 -0.069600165 0.19536042 -0.06400874 0.17985283 -0.14995748
-0.014212852 0.19195835 0.30747154 0.33658725 0.29501855 -0.10202893 0.0060778605 -0.15342103
-0.1032128 -0.16098276 0.22371705 -0.1664874 0.15644418 0.13637164 0.16941042 -0.05891837
0.29579297 0.22978894 0.16656213 -0.1391399 0.08696533 -0.008808013 -0.043548718 0.24348462
0.047833398 -0.14250201 -0.21143174 -0.052337233 0.15383507 -0.035781123 -0.117126465 -0.12085703
-0.11869901 0.17771378 0.24500638 -0.22146256 0.0711615 0.22917315 0.16254155 -0.093018524
-0.031455718 0.17232698 0.21508943 0.12180867 -0.033586614 -0.048385303 -0.022950826 0.019940913
0.35280085 0.39629582 0.100375116 -0.12794398 -0.04449282 0.0606618 0.22573407 0.26231384
-0.21935296 -0.13736801 0.101130076 0.04146421 -0.046727262 -0.13929074 -0.25378644 -0.29259685
-0.13707145 -0.0017234236 0.22878924 0.059205726 -0.24896656 -0.19838288 -0.12249715 0.34596604
0.1621523 -0.024624102 0.04438919 -0.1284683 -0.02452721 0.29638386 0.02217968 0.027112674
-0.18360089 0.2038227 0.34073222 0.3613751 0.21490453 0.12005896 0.07499318 0.4570852
0.3818896 0.44435486 0.31880805 0.13838954 -0.035573166 -0.22957228 -0.22763793 -0.21708144
-0.05790315 -0.37790534 -0.33152723 -0.29339314 -0.17502068 -0.34965065 -0.37164193 -0.12299712
-0.12655823 0.026711788

conv1.bias f4 [10]
00000000: 949c 293e 57c9 573d 0d00 52bc 3843 c5bd
00000010: ef0f ec3c 9b67 f3bd 1a27 323e 5b6a 7bbb
00000020: 8e13 023e 956e 0a3e
0.16563636 0.052682247 -0.012817395 -0.096319616 0.028816191 -0.118849955 0.17397729 -0.0038362953
0.12702772 0.13518746

conv2.weight f4 [20, 10, 5, 5]
00000000: bdfe 693d 8385 2bbd 0819 4bbb 66fe 73bd
00000010: 0762 5bbd 6160 f23c c12d 983b aabd 85bc
00000020: 9145 96bd 230e 0abe 9f78 313d 85a1 6c3c
00000030: 45c3 b03d 7e31 303e cfaa 023e ce57 f6bc
00000040: 0a7d 1abe 6f77 5bbd 72bb c33d a9c8 9c3b
00000050: 84a4 92ba 9ec5 1abe f84a 3abe b54b 26be
00000060: 4ce6 9cbd a1bf 70bd 59d4 b5bd da9d 98ba
00000070: 5439 383c 6290 52bd 843e 7dbb a3e8 dd3c
00000080: a803 39bd f971 2ebd 3081 87bb b067 90bc
00000090: 9e7b 1bbd 4869 3a3d ff90 053e a627 bf3d
000000a0: 5656 00bd c969 0bbe de8f 19be 8142 9abd
000000b0: f31e 23bd 08f4 2e3e 4aa5 a63d 60f0 993d
000000c0: 25e9 493a abb7 1abd 2aa3 383d 886e 3f3d
000000d0: 1566 03bd a615 f73c 61cf 663d 63f3 07bd
000000e0: 2f85 d93c ba41 873d 1d2e e23b 03e1 293d
000000f0: a624 6ebd 6a8e 53bd 960c 63bd b6b1 6abd
00000100: e532 49bd c607 51bc 67d9 9dbd eb06 33be
00000110: cc5b 2ebe 67ad f4bd d1a5 dc3c 8005 923c
00000120: d41e 2abd 4f8a 14bd 97a5 fa3c 931c 5fbd
00000130: 0aee 95bc 61af bf3c a284 0c39 0049 f73c
00000140: 1f80 8bbc 41aa 00bd 98ba 7bbd 2426 60bd
00000150: e906 f1bc c97b 8bbc 3886 293d 0f3a 95bd
00000160: b70f 8cbd 73e8 38ba 44c4 30bc 5697 033d
00000170: ab73 a83d dcf8 903d b7d1 d4bd c2a9 86bd
00000180: b43d 3c3c 550a 513c 535d 08ba 519c a23d
00000190: a01a 27bc fe6c d7bc a120 5cbd 5f4e 4e3b
000001a0: 69a6 df3c b174 a93c 52a0 123c ad5e 84bd
000001b0: c441 8ebd aac5 5e3a b44b a23d 1382 4f3d
000001c0: e8b4 59bd 06f8 13bd 2eb6 50bd 1912 e63b
000001d0: 5012 523d 43bb 7a3d 543c 8b3d 3dc4 13bd
000001e0: fc65 613d 7e0b 2dbc 6517 6f3d a064 ba3d
000001f0: d2e4 2e3d 067b f83c 150b 60bd fe4f 9ebc
00000200: edfc b93c db78 bbbc 3170 543c 6a0d 32ba
00000210: eb53 b83d f1a8 af3d da34 983d 2d35 eabc
00000220: 060c a6bd fb98 a2bc 8824 213d e557 a53c
00000230: a925 683c a12b 8f3d 1ce0 5d3c 2f93 e33b
00000240: 516d d1bc 3c11 eaba a215 b43c 7311 753d
00000250: 1b37 303d acf5 3a3d 8df6 18bd fc99 3abc
00000260: 8252 8b3d 38b9 523d 3e8a 813d bc4b 8fbd
00000270: 6f3f 59bc 439b 0c3d 5bcf acbc f80e acbc
00000280: 4236 3cbc f46f 9abb 0d85 0cbd eaf7 be3d
00000290: 62e0 113e f917 ae3b f625 58bd d178 e9bd
000002a0: f8c3 09bd 199a e73c a712 213d ce31 87bc
000002b0: 9c46 69bd 1b35 10ba 4664 b4bd 788d 1a3d
000002c0: 7fd0 44bd 56c1 4abd d52f 56bd d0ee 18bd
000002d0: 8eeb dabb 15e3 b33d d434 303d 0e5c af3d
000002e0: 6cbf 003d f88d 61bd 61a3 1bbd 1176 cd3d
000002f0: a59d 293e d4b7 ed3c cb21 cabc de67 10be
00000300: 4fb5 10be 42cf 93bc 867b 013d 9f34 8e3d
00000310: 78e9 093c 3e1b 263d 818f 0bbd b4bb c9bd
00000320: e638 e8bc ddd7 25b9 026d cc3c daff 9cbd
00000330: 0e63 0dbc c1d9 06bd 2919 fbbc 34b3 1f3c
00000340: 4c85 9b3d 89ab 5c3d b60b a63d dc1e 893d
00000350: 899b 913d 98e6 8e3c 905e 393c 24f5 a53d
00000360: 8fe7 833c 9de4 69bc cba0 8bbc 0d72 853c
00000370: c228 a23d 3b80 6e3d 55c0 203d 434c 6f3d
00000380: b012 aabc 6172 4ebc 1a6e ea3c 06d5 d9bc
00000390: 7426 5f3d 6cbe d93d 7d74 a0bb e3cd f53a
000003a0: 3665 3abc d0c7 b1bc f81a d03c acb1 13bd
000003b0: 1874 4f3d 6aa4 ac3d cf02 06bc 8146 5d3c
000003c0: 8832 afbc 0b97 82bb caa6 db3d 04ee 483e
000003d0: 4ac6 593e aa16 4b3d ab3b cfbd 530f 9dbd
000003e0: ca44 0abc 1640 c03c 4c46 cebc ee20 f5bd
000003f0: 3279 f1bc ce6b 143c 0ba4 6bbd e9e5 cc3c
0.057127703 -0.041875374 -0.0030990262 -0.059568785 -0.053560283 0.029586973 0.004644126 -0.01632579
-0.073374875 -0.13481955 0.043327924 0.014442806 0.08630995 0.1720638 0.12760471 -0.030071165
-0.15086761 -0.053580698 0.09557237 0.0047846627 -0.0011187945 -0.15114447 -0.18192661 -0.16239817
-0.07661113 -0.0587765 -0.08878393 -0.0011643723 0.011244137 -0.051407225 -0.0038641999 0.027088469
-0.045169502 -0.04258916 -0.0041352734 -0.017627567 -0.037959687 0.04551056 0.13043593 0.09333734
-0.031332336 -0.13614573 -0.14996287 -0.07532216 -0.039824437 0.17085278 0.08136995 0.07516551
0.0007702283 -0.037772816 0.04507748 0.04673627 -0.032079775 0.03016169 0.056350116 -0.033191096
0.026552765 0.06604333 0.00690247 0.041474354 -0.05814042 -0.05164949 -0.055431925 -0.057298385
-0.049120802 -0.012758201 -0.07707482 -0.17483108 -0.17027205 -0.11947136 0.026934536 0.017824888
-0.041533306 -0.036264714 0.030596538 -0.05447061 -0.018301982 0.023399057 0.0001340085 0.030186176
-0.017028866 -0.031412367 -0.061457247 -0.054723874 -0.02942224 -0.017026799 0.041387767 -0.072864644
-0.06838935 -0.00070536806 -0.010788981 0.032126747 0.08225187 0.07078716 -0.103915624 -0.065753475
0.011489321 0.012758811 -0.00052018947 0.07939971 -0.010199219 -0.026297089 -0.053742055 0.0031479818
0.02730103 0.020685526 0.008949356 -0.064633705 -0.069461375 0.0008498082 0.079245955 0.050661158
-0.05315104 -0.036125205 -0.05095499 0.0070212004 0.051286995 0.061213743 0.06798616 -0.03607582
0.0550289 -0.010561822 0.05837192 0.09101224 0.04269869 0.0303321 -0.05469807 -0.019325253
0.022703612 -0.022884777 0.012966202 -0.000679216 0.09000381 0.08577145 0.07431956 -0.02858981
-0.08107762 -0.019848337 0.03934148 0.020183513 0.014169135 0.069907434 0.013542201 0.006945036
-0.025564821 -0.001785792 0.021982972 0.059831094 0.043021303 0.045644447 -0.037344504 -0.011389252
0.068028465 0.05144617 0.06325196 -0.06996867 -0.013259753 0.034327757 -0.021094969 -0.021003231
-0.011487545 -0.004713053 -0.034306575 0.093246296 0.14245752 0.0053129164 -0.052770577 -0.11399997
-0.033634156 0.028271722 0.03932443 -0.01650324 -0.056952104 -0.00055010774 -0.08808188 0.03773257
-0.0480504 -0.049500786 -0.05229171 -0.037337124 -0.0066809123 0.08783547 0.04301913 0.0856248
0.031432554 -0.055067033 -0.037997607 0.10032285 0.16564043 0.02901832 -0.024674317 -0.14102122
-0.14131664 -0.018043164 0.03161194 0.069436304 0.00841748 0.040553324 -0.034072403 -0.09850255
-0.028347444 -0.00015816042 0.024954323 -0.07665987 -0.0086295735 -0.03292251 -0.030651646 0.009747315
0.07593784 0.053874526 0.081077024 0.06695339 0.07109744 0.01744394 0.011314049 0.081033975
0.016101627 -0.014275697 -0.017044445 0.016289735 0.0791793 0.05822776 0.039245922 0.05842234
-0.020760864 -0.012600512 0.028616954 -0.026590835 0.05448003 0.10632023 -0.004896699 0.0018753376
-0.01137667 -0.021701723 0.025403485 -0.036058113 0.050647825 0.08429797 -0.008179381 0.013505579
-0.0213864 -0.003985291 0.10725172 0.19622046 0.21267048 0.04958216 -0.10118803 -0.076689385
-0.008439252 0.023468059 -0.025180005 -0.119691715 -0.029476736 0.009058906 -0.05752949 0.025011973

conv2.bias f4 [20]
00000000: 6e3d a23d a3d1 6bbd a98a 15bd 686d 44bd
00000010: 787b 56bd 14ef 853c dd45 ea3c d264 0fbd
00000020: 93ed 9f3c 13b0 6dbd 46f9 853c 5e51 ec3c
00000030: 0ae7 ecbc 1996 18bd f258 703d 3384 1bbd
00000040: 5167 93bc 2a0f 37bd 812b 0f3d ade7 ac3b
0.07921873 -0.057572972 -0.03650919 -0.0479559 -0.052363843 0.016349353 0.028597767 -0.03500826
0.019522464 -0.058029246 0.016354214 0.028847393 -0.028918762 -0.03725252 0.058678575 -0.037967872
-0.017993601 -0.044692196 0.034953598 0.0052766413

fc1.weight f4 [50, 320]
00000000: 2340 02bd 00dc c1bb 2705 74bb 2f03 083d
00000010: c570 5bbd 4a18 c3bd 3d8f 903c fd63 963d
00000020: 8a36 d2bd 9539 6e3c b402 34bd dd2e 8f3d
00000030: 93f7 093c be87 0c3d 10f9 433d fc5c d43d
00000040: dc9e 513c 88f9 893b e012 a0bd 9c5b 09bd
00000050: fbcd 4c3c 6259 bbbc afba cfbc f7f7 fa3c
00000060: 6fc4 f1bc 8cb8 67bd ae29 30bc 1892 603d
00000070: e185 04bd 9b2d 57bc a099 a53d 53af 1b3d
00000080: 1fe5 c43c 18dd 833d b8a1 b83d 4b86 37bd
00000090: 1dc5 c3bc ef62 a53c 173d 333c 7bb7 bcbb
000000a0: 3b81 a23d cadc e4bb a916 95bc 6d07 e73c
000000b0: 4f24 673d 71dd 5f3d 01d0 cdbd 3d13 d2bd
000000c0: f252 f23c 786d fbbb 0618 f13c afe7 a6bc
000000d0: dac7 533d e894 84bc 4196 233d b123 2b3c
000000e0: d02e 18bb 8e02 ad3c 1ecc 7b3c 2e68 9f3b
000000f0: 1b61 e0bc e8ee 0dbd 7f1b 36bd f6b3 b43d
00000100: 48fe 2c3d 0978 da3d 3eab e43d b440 2abd
00000110: 6833 2e3d 5397 f03c 3b0d b8bc 295f 5ebd
00000120: a24d 94bd 56cb aebb fc1d 1e3d c785 8bbc
00000130: 76ee 033c 3b88 053d d33f 9abc 5d97 03bd
00000140: 290e b1bc 7a22 093c 96a5 623d b937 6a3c
00000150: c52c de3a eeec 7cbc 549a dcbd 1aeb 9abd
00000160: 8de2 99bd b010 d3bc 00f7 103c 4a09 6f3d
00000170: 0299 0a3d 35df e13d 4920 af3d 99ca 81bd
00000180: b4c7 5ebd 5b94 f43b d2ef cb3c 326e da3a
00000190: 8df3 aa3c 71cd 8a3d a828 cebc 5274 8dbc
000001a0: 0762 043d d162 cc3b cfb2 5f3c f75e 1bbc
000001b0: 111e 843c 85b7 cf3c 9a21 dd3c ff62 febb
000001c0: a780 36bd 3993 4cbd d67a a33d eb7a b73c
000001d0: 3490 94bd 21d7 9e3c 4eb4 df3d 1737 213d
000001e0: eb5f e9bb fc9f 8f3d 326f 923d 3905 063d
000001f0: 814f 27bd 9664 62bc ce18 c4bc 7c12 383d
00000200: 2182 61bd 111b 153c 59f3 34bd d69e 0cbd
00000210: a008 5d3d a1de 923b e7fd 373d 5952 f73b
00000220: d56b 163d e75a 8bbd 47d7 a1bd b806 283c
00000230: 5dfc 0a3d 4974 83bd 932b 063d 041d 803d
00000240: bafc f1bc 59bc 8fbc f9f0 91bd a11f 8bbd
00000250: 6143 00bd c2af 0bbd a180 2dbc ff24 c93a
00000260: bc20 c2bd 90ec fcbc 8b7e 44bc 4347 5abd
00000270: 1cc2 803b c667 9e3d b457 6e3d fe7e 40bc
00000280: 8a1a 4abd b1d4 6c3a 06ee 5c3c 4671 ffbc
00000290: b44b 723c 07fb 9d3b 9569 94bd 5052 b5bd
000002a0: b58a 183d afbc e8bb afb4 febc 4102 743c
000002b0: 7fa1 1e3c b4b0 e7bb 0f9e a43c d586 af3d
000002c0: 9aa1 24bc 56b9 883d c894 c43d 4cdc e138
000002d0: 5f69 303c 60d7 59bc fa37 94bb 018c 9fbb
000002e0: 02e3 2e3d bf50 83bc 4d12 023d 9fef b7bc
000002f0: 4ebf 27bc b4e2 bc3c 332c e7bc de67 b4bc
00000300: e476 f93c 0927 883c c8cc 48bc 6401 52bd
00000310: 3c5a fdbb 2fcd b53c ed08 84bc 7743 3d3d
00000320: f0c4 153c 4365 1fbb 8bcd b73c dfa8 f13c
00000330: 1c2e 28bd 3505 863c f434 4dbd 21fe 4fbc
00000340: c0ba d63c 44f2 eb3d 0e65 4fbd a305 eebc
00000350: e8d1 45bd 96a6 ef3c 923b b6bc 4b96 4fbd
00000360: e681 213c c514 323d f8f4 b8bb 9c54 10be
00000370: 110c f13c 5184 9d3d 007d 41bd 4295 28bd
00000380: 1d1d 0c3d 81ef 6a3d 69c5 ca3d 021d e4bc
00000390: d250 5f3d df9a 94bc 72c0 37bc 4a86 d7bc
000003a0: 21d9 b1ba c023 923d e27b 023d 5f44 d63c
000003b0: 31fc a4bc b2e2 343c bf71 473d 0679 62bc
000003c0: db53 783c c21b 20bd 9e5f 99bd 8db7 55ba
000003d0: 01c1 943c e1b3 2b3d 7db5 773c 4b49 353c
000003e0: 4ab3 23bc 538b adbc 3b5d fbbc c5b3 14bc
000003f0: 918f 60bd 4d9e d03c f6b8 f53d 2bba 053e
-0.031799447 -0.0059161186 -0.0037234516 0.03320616 -0.053574342 -0.09526117 0.017646426 0.0734329
-0.10264309 0.014540096 -0.04394789 0.0699136 0.008420843 0.03430914 0.047844946 0.10369298
0.012794223 0.0042106546 -0.078161 -0.03353463 0.012500281 -0.02286977 -0.025357572 0.030635817
-0.029512612 -0.056572482 -0.010752125 0.054826826 -0.03235424 -0.013133432 0.08085942 0.038009
0.024035035 0.06438655 0.090152204 -0.044805806 -0.023897702 0.020188777 0.010939858 -0.0057591773
0.07934805 -0.006984328 -0.018199282 0.028201783 0.05643111 0.054654542 -0.10049439 -0.10257576
0.029580567 -0.007672962 0.0294304 -0.020374147 0.051704265 -0.016184285 0.039938215 0.010445521
-0.0023221262 0.021119382 0.01536849 0.004864714 -0.027390053 -0.034651667 -0.044459816 0.08823387
0.04223469 0.10667426 0.11165474 -0.041565612 0.042529494 0.029369032 -0.022467246 -0.05428997
-0.0724137 -0.005334298 0.038602814 -0.017031563 0.008052459 0.032600623 -0.018829262 -0.032126773
-0.021613197 0.008370036 0.055333696 0.014295512 0.0016950598 -0.015437348 -0.10771623 -0.07564373
-0.07513914 -0.025764793 0.008847952 0.058358468 0.033837326 0.110289015 0.0855108 -0.063374706
-0.05438967 0.0074639744 0.024894629 0.0016664921 0.020868087 0.06777466 -0.02516587 -0.01726738
0.03232005 0.006237366 0.013653471 -0.009483091 0.016127618 0.025356064 0.026993562 -0.007763266
-0.044556286 -0.04994509 0.079824135 0.022397479 -0.07254067 0.01938969 0.10923062 0.03935918
-0.00712203 0.070129365 0.07150115 0.032719824 -0.040847305 -0.013817927 -0.023937609 0.044939503
-0.05505574 0.009100691 -0.044177387 -0.034331165 0.053963304 0.004482106 0.044919875 0.0075476584
0.03672393 -0.068044476 -0.07902389 0.010255508 0.03393208 -0.06418664 0.0327564 0.06255534
-0.029539455 -0.017545866 -0.0712604 -0.06793142 -0.031314258 -0.034103163 -0.01058975 0.0015346109
-0.094789 -0.03087452 -0.011993061 -0.053290617 0.0039293896 0.07734637 0.05818911 -0.011749027
-0.049341716 0.0009034379 0.013484484 -0.031181943 0.014788557 0.0048211846 -0.07246701 -0.088535905
0.037241656 -0.007102571 -0.031092016 0.0148931155 0.009682058 -0.007070625 0.0200949 0.08570639
-0.010048294 0.06675975 0.0959869 0.000107698696 0.01076731 -0.013295978 -0.0045232745 -0.0048689847
0.04269696 -0.016029714 0.031755734 -0.022453127 -0.010238482 0.02305732 -0.028219318 -0.022022184
0.0304522 0.016620176 -0.012255855 -0.051270857 -0.007731704 0.022192566 -0.016117537 0.046206918
0.009141192 -0.0024321831 0.022436878 0.02949947 -0.0410596 0.016359905 -0.05009933 -0.012694866
0.026212096 0.11520818 -0.050633483 -0.029055422 -0.048295885 0.029254239 -0.022245202 -0.05068044
0.00985763 0.04347684 -0.005644437 -0.14094776 0.029424699 0.07691253 -0.04723835 -0.04115797
0.034207452 0.057357315 0.09900934 -0.027845863 0.054520436 -0.018140255 -0.011215316 -0.026309151
-0.0013568738 0.07135725 0.031856425 0.026155649 -0.020139785 0.0110403765 0.04869246 -0.0138228
0.015156711 -0.039088972 -0.07488941 -0.00081526564 0.018158438 0.041919593 0.015118954 0.011064838
-0.009991476 -0.021184599 -0.030684104 -0.0090760635 -0.054824416 0.025466109 0.11998169 0.13059299

fc1.bias f4 [50]
00000000: d765 7b3c 4402 2eba abec 513d d735 09bd
00000010: e60c a23c 35e0 313c 6742 313d 1527 a9bc
00000020: 5695 223d 7e9f fa3c 831d 6d3d 3929 9bbd
00000030: df98 29bc 1a64 72bb 664d 03bd c512 70bb
00000040: 7859 4bbd 9e9d 853c ba51 383d f880 8bbb
00000050: 7cde 633d ef92 d33c 02a1 fe3c 6954 d03c
00000060: 3e30 31bd e7f1 4ebd 2af9 b73c b1a7 02bd
00000070: cc17 263d 3871 313c 3888 e0bc 12e8 2bbd
00000080: 88ea 673c 3879 28ba 4d88 703d 84a2 69bc
00000090: 8659 ddbc 46ec 4fbd 3def 583c 48e5 06bd
000000a0: 54de d03b 48d0 3c3d a9c6 8cbc 6ca7 9f3d
000000b0: e26a 6e3d 37ba a8bc 717f 523d 2cae adbc
000000c0: 76f3 1d3d c309 44bc
0.015344105 -0.0006637911 0.051251095 -0.03349861 0.019781541 0.010856678 0.043276217 -0.020648519
0.0396932 0.03059363 0.057889473 -0.07576222 -0.010351389 -0.0036985935 -0.032056235 -0.0036632281
-0.04964587 0.01631051 0.044999816 -0.0042573176 0.0556321 0.0258269 0.031082634 0.025430875
-0.043258898 -0.050523665 0.022457678 -0.031898204 0.04055004 0.010830216 -0.027408704 -0.041969366
0.014155038 -0.00064267544 0.058723737 -0.014259938 -0.027020227 -0.050762437 0.013240633 -0.032933503
0.00637416 0.04609707 -0.017184572 0.07795605 0.0582074 -0.020596607 0.05139107 -0.021201216
0.03856226 -0.011965218

fc2.weight f4 [10, 50]
00000000: 6a7a 2a3d 8ba4 6c3e 6301 243e 0d08 d6bc
00000010: 35c8 ca3d 1555 da3d 039b febd 8167 de3d
00000020: 6412 f6bc 0ae1 9dbd fcc1 953d c1ed 2bbd
00000030: 30c7 2fbe 65ac 0ebe af4f 3cbe eb68 313e
00000040: 3793 503c 625d 5dbe 01cb eebd e148 153e
00000050: f8de 12bd 0535 ea3d 1e51 8cbe 455f adbc
00000060: 3af9 2fbe eaf5 7cbd 1b68 f9bd b46b 00be
00000070: f8cb 1bbe 0be6 3abe 10bc df3d f600 363d
00000080: 6b8a abbd 8187 64be 4693 dfbc fcfa 4b3e
00000090: f02e 66be 3715 7b3d f4da 05bc aec1 c23d
000000a0: 15f4 07be 38b4 cfbd edfa 883d f616 cc3e
000000b0: 2a39 25be f9c5 f03d a0ee 1e3e d44f 3a3e
000000c0: a87d 27be ede3 883e 83ac 853e 29e1 a03e
000000d0: 7483 803d 767b 253e 25c3 4ebc 7b31 963d
000000e0: ec7f afbd 3269 033d f4a6 133e bd47 b43e
000000f0: fcfb 2bbd 8a7d 35be 8f87 8b3e de58 033d
00000100: dcad 13bd 9231 ec3d bdc5 a0bd 5fb0 d9bd
00000110: d329 9a3d d55f 58be 997d 63be 6ac7 973d
00000120: 4087 e43c 6093 663c 5f19 3cbd cdca 10bb
00000130: 8ab4 fabd bf4b 223e 94bc 3b3d b22e 0dbd
00000140: 18ce d53d 6883 70bd 3adb c33b d461 403e
00000150: eb3d 033e 9ac5 c4bd 9991 cabc bdbc 7fbe
00000160: 0f20 b43d 2fc4 853d 8313 57be ec83 aebd
00000170: 3ba6 81bd 3e77 913e 4cdc 0a3e b7af 313e
00000180: 6852 82be e6ef ee3d d711 a53e a89d 86be
00000190: 7843 243e 2af0 02be 28d1 4c3e 4c4a a0bd
000001a0: 11f6 5dbe d3f3 d6bd b815 d43d 403a 343d
000001b0: c9a8 0cbe d764 5dbe f1aa 7e3e 12ea 33be
000001c0: 5095 f9bd b645 76be 4435 f6bb 206e 53be
000001d0: 34c3 85bd dcaf 3a3d 7585 463e 4af7 0d3e
000001e0: 5287 8dbe 1e02 0ebd fd48 69bd 08a5 89be
000001f0: b4fb 133d a922 7abd 0755 3dbe b905 d43d
00000200: c336 81bc 332e 7f3b fbf1 92bd 4030 dfbd
00000210: 2349 5ebe ff58 813e 6b7a 453e 8fc6 d43c
00000220: 6939 0ebe bc74 d63c c4ed 19be e434 9dbd
00000230: 4853 6e3e ec2b 81ba 64f8 463d 4ee0 413e
00000240: 5c79 7c3d 9954 1fbe 7af2 653c 57d5 163e
00000250: 5d92 913e d3f3 4a3e c44b 3fbe 6a46 35bd
00000260: 0d5e 373e 91f3 9ebd a77e 003e 995a 99bb
00000270: be2f 543e d475 f1bd dbed ac3c 30e1 cbbe
00000280: 9120 cebd 6e2b 2f3e e422 e8bd 027b 9b3e
00000290: 3638 9ebd 7ac2 1c3d acdd 1dbc 0dba 663e
000002a0: 6662 f13b f419 3d3e 3052 84be d56c 0b3e
000002b0: 6a74 26be 2cb7 1bbe 82a4 2c3e d43f 1cbb
000002c0: a77e 863e 5b34 833e e32b 00be b172 c33c
000002d0: 11e8 a1bb 402a 1b3e ef17 453e aed7 cc3d
000002e0: f0f0 8dbe 0786 173e 0f0f df3d 849f 063e
000002f0: ed93 f93c 0da9 183d 9e8e 21be cbb8 2ebc
00000300: ca1d 9abc 2d7f 77be 24ce 043e 8138 e5bc
00000310: 99b5 92be 504e 853c 65a4 b4bc de8c 5c3d
00000320: b7d3 07bd 0f16 05be e735 00be 7cd4 13be
00000330: 6c1a debd 251a 783d da59 bcbd 10f6 1dbd
00000340: 4cc4 f43d 54a2 2d3e 7a97 1a3e 23bc 193e
00000350: 34fd 913e 6347 11be ac88 93be 5cf3 9fbd
00000360: 8d49 a03d 9192 63bc 5090 d83d ce4a 38bd
00000370: 86a3 293d 0f3f 093e e7b9 d83d 95cb e73d
00000380: 52f6 0c3e e711 0abe 01af 943d f746 35be
00000390: 28d4 583d e003 2cbc 69b6 943b a166 353e
000003a0: 6bac 25bc b373 06ba aa5d c83e c88d 20be
000003b0: 0e22 613e 4682 0fbe 2dac 3d3e 5526 a9bd
000003c0: 42c7 143e db02 be3d d58e c8bd d719 33be
000003d0: 8d91 1dbe 43d9 323e 5432 953d 8fa4 a73d
000003e0: 833b 3abe 42f8 59be e802 1bbd eed3 873e
000003f0: a3c1 7e3d a948 163c b675 cb3d ef4f ffbd
0.04162065 0.23109643 0.16016154 -0.026126886 0.09901468 0.10660759 -0.1243191 0.108595856
-0.030038066 -0.077089384 0.0731239 -0.041974787 -0.17165828 -0.13932951 -0.18389772 0.1732518
0.012730411 -0.21617654 -0.11659814 0.14578582 -0.03585717 0.11435894 -0.27405638 -0.021163592
-0.17184916 -0.06175796 -0.1217806 -0.12541085 -0.15214527 -0.18251817 0.10924542 0.04443451
-0.083760105 -0.22317316 -0.027291905 0.19919962 -0.22478843 0.06129953 -0.008169878 0.09509598
-0.13276704 -0.10141796 0.06688485 0.39861268 -0.16135088 0.1175651 0.15520716 0.18194515
-0.16356528 0.26736394 0.26108178 0.31421784 0.06275073 0.16160378 -0.012619768 0.073336564
-0.08569321 0.032082744 0.14419156 0.35210982 -0.041988358 -0.1772367 0.2725186 0.032067172
-0.036054477 0.11532892 -0.078502156 -0.10629343 0.075275086 -0.21130307 -0.2221588 0.07411082
0.027896523 0.014073223 -0.045922633 -0.0022093535 -0.12241466 0.15849207 0.04583414 -0.03446836
0.104397 -0.05871907 0.0059770616 0.18787318 0.12816589 -0.09608002 -0.02472763 -0.24974342
0.08795177 0.0653156 -0.21003537 -0.08521256 -0.06330534 0.28411287 0.13560599 0.17352186
-0.25453496 0.11666851 0.32240173 -0.26292157 0.16041362 -0.12786928 0.20001662 -0.07826671
-0.21675898 -0.104957245 0.10355705 0.044000864 -0.13736261 -0.21620499 0.24869896 -0.1756976
-0.12186682 -0.2405003 -0.007513674 -0.20647478 -0.06531373 0.04557787 0.19386847 0.13863865
-0.27642304 -0.034669988 -0.056954373 -0.2688372 0.036128715 -0.06106821 -0.18489467 0.10352654
-0.015773183 0.003893745 -0.0717506 -0.10897875 -0.21707587 0.2526321 0.1928498 0.025973586
-0.13889088 0.02617871 -0.15032107 -0.07676104 0.23273957 -0.0009855009 0.048576728 0.18933222
0.061639175 -0.15559615 0.014034862 0.1472982 0.2843198 0.19819574 -0.18681246 -0.044256605
0.17906971 -0.077613 0.12548314 -0.0046799895 0.20721337 -0.11790052 0.021109512 -0.39820242
-0.10064805 0.17106411 -0.1133478 0.30367285 -0.07725565 0.038271405 -0.00963537 0.2253191
0.0073664663 0.18466932 -0.25843954 0.13615735 -0.16255346 -0.15206593 0.1685963 -0.0023841755
0.26268503 0.25625882 -0.12516741 0.0238584 -0.0049409945 0.15152836 0.19247411 0.10002075
-0.27722883 0.14797221 0.10891544 0.13146788 0.030466044 0.037270594 -0.1577706 -0.010664175
-0.018813033 -0.24169607 0.12969261 -0.027981045 -0.28654173 0.016272694 -0.022051046 0.05384528
-0.03316089 -0.12996696 -0.12520562 -0.14436525 -0.10844883 0.06057181 -0.09196825 -0.03856474
0.11951503 0.16956455 0.15096846 0.15013175 0.2851349 -0.14187388 -0.2881521 -0.07810089
0.07826529 -0.013889925 0.105744004 -0.044993214 0.041415714 0.13402961 0.10582333 0.11318127
0.13765839 -0.13483392 0.07259942 -0.17702852 0.052936703 -0.010498971 0.0045383465 0.17714931
-0.010111908 -0.0005128935 0.3913396 -0.15679085 0.21985647 -0.14014539 0.18522711 -0.082592644
0.14529136 0.092778884 -0.09792868 -0.17490326 -0.15387554 0.17465691 0.0728499 0.08185684
-0.18186764 -0.21286109 -0.03784457 0.26528877 0.062196385 0.009172597 0.09934561 -0.12466418

fc2.bias f4 [10]
00000000: 96ef 483d 7a85 48bc 16ba 61bd 88c0 8fbd
00000010: ba38 023d 994e af3d 69bb 043e 7536 18bc
00000020: 17f2 60b9 a201 08be
0.049056612 -0.012238855 -0.055109106 -0.07019144 0.03179238 0.08559913 0.12962116 -0.009290327
-0.0002145249 -0.13281873
